src/lib/libtf/models/person_detection.tflite (tflite, 341256 bytes, 28 tensors)

sequential/dense/MatMul;StatefulPartitionedCall/sequential/dense/MatMul i1 [2, 256] scale=0.0016734183 zero_point=0
000000 e2 27 3a 2f 44 0f de ee ca e2 05 e5 c1 4f 08 f2
       -0.05020255 0.065263316 0.09705827 0.07865066 0.11379245 0.025101274 -0.056896225 -0.03012153 -0.09036459 -0.05020255 0.008367091 -0.045182295 -0.10542536 0.13220005 0.013387347 -0.023427857
000010 91 56 e7 38 d0 f5 2e 1a 65 35 d1 2a 54 81 04 09
       -0.18574944 0.14391397 -0.041835457 0.09371143 -0.08032408 -0.018407602 0.076977246 0.043508876 0.16901526 0.088691175 -0.07865066 0.07028357 0.14056714 -0.21252413 0.0066936733 0.015060765
000020 27 d9 9d e9 43 0f bc 3a d9 b2 12 c6 0f 51 0e ae
       0.065263316 -0.065263316 -0.16566841 -0.038488623 0.11211903 0.025101274 -0.11379245 0.09705827 -0.065263316 -0.13052663 0.03012153 -0.09705827 0.025101274 0.13554688 0.023427857 -0.13722031
000030 07 39 2f f5 42 ee 4c 32 f5 e5 f3 21 f6 c1 4a ec
       0.011713929 0.09538484 0.07865066 -0.018407602 0.11044561 -0.03012153 0.12717979 0.083670914 -0.018407602 -0.045182295 -0.021754438 0.055222806 -0.016734183 -0.10542536 0.123832956 -0.033468366
000040 ff 07 e4 1b 2e f4 cb f4 7a be 06 18 16 34 c3 e0
       -0.0016734183 0.011713929 -0.046855714 0.045182295 0.076977246 -0.02008102 -0.088691175 -0.02008102 0.20415704 -0.11044561 0.01004051 0.04016204 0.036815204 0.08701775 -0.10207852 -0.053549387
000050 e7 f9 cd 33 d8 df eb be 2e d7 e0 19 1a 27 39 1c
       -0.041835457 -0.011713929 -0.08534434 0.08534434 -0.06693673 -0.055222806 -0.035141785 -0.11044561 0.076977246 -0.068610154 -0.053549387 0.041835457 0.043508876 0.065263316 0.09538484 0.046855714
000060 34 2d d1 35 f0 62 11 03 44 a7 41 21 e2 08 f4 df
       0.08701775 0.07530382 -0.07865066 0.088691175 -0.026774693 0.163995 0.028448112 0.005020255 0.11379245 -0.14893423 0.10877219 0.055222806 -0.05020255 0.013387347 -0.02008102 -0.055222806
000070 fe ec 07 a5 c2 68 c0 ea 39 bc 00 d9 e0 b1 c3 eb
       -0.0033468367 -0.033468366 0.011713929 -0.15228106 -0.103751935 0.1740355 -0.10709877 -0.036815204 0.09538484 -0.11379245 0.0 -0.065263316 -0.053549387 -0.13220005 -0.10207852 -0.035141785
000080 0e d3 b1 dc 10 05 0a be 17 65 44 f8 c6 e0 f1 20
       0.023427857 -0.07530382 -0.13220005 -0.06024306 0.026774693 0.008367091 0.016734183 -0.11044561 0.038488623 0.16901526 0.11379245 -0.013387347 -0.09705827 -0.053549387 -0.025101274 0.053549387
000090 41 9e 1c 2d 63 3a 2d ce d7 b0 36 f2 1e d6 cd 10
       0.10877219 -0.163995 0.046855714 0.07530382 0.16566841 0.09705827 0.07530382 -0.083670914 -0.068610154 -0.13387346 0.09036459 -0.023427857 0.05020255 -0.07028357 -0.08534434 0.026774693
0000a0 b9 4a 26 af 12 3d 0f cf 1e 13 4f 59 cc fe 06 13
       -0.1188127 0.123832956 0.06358989 -0.13554688 0.03012153 0.10207852 0.025101274 -0.0819975 0.05020255 0.031794947 0.13220005 0.14893423 -0.08701775 -0.0033468367 0.01004051 0.031794947
0000b0 a2 cc 09 48 be f5 10 21 ec 04 f7 b4 e6 f0 c2 04
       -0.15730132 -0.08701775 0.015060765 0.12048612 -0.11044561 -0.018407602 0.026774693 0.055222806 -0.033468366 0.0066936733 -0.015060765 -0.12717979 -0.043508876 -0.026774693 -0.103751935 0.0066936733
0000c0 40 dd 15 ee a2 c3 02 b8 c6 dc ce 12 bb 2f 0d f6
       0.10709877 -0.05856964 0.035141785 -0.03012153 -0.15730132 -0.10207852 0.0033468367 -0.12048612 -0.09705827 -0.06024306 -0.083670914 0.03012153 -0.115465865 0.07865066 0.021754438 -0.016734183
0000d0 fa f7 26 43 de ea 28 4c 2b fe be 1f ef ef c9 12
       -0.01004051 -0.015060765 0.06358989 0.11211903 -0.056896225 -0.036815204 0.06693673 0.12717979 0.071956985 -0.0033468367 -0.11044561 0.051875968 -0.028448112 -0.028448112 -0.092038006 0.03012153
0000e0 11 4f 49 1e 0c 04 28 22 ba ca da 3c bb be c6 26
       0.028448112 0.13220005 0.12215954 0.05020255 0.02008102 0.0066936733 0.06693673 0.056896225 -0.11713928 -0.09036459 -0.06358989 0.1004051 -0.115465865 -0.11044561 -0.09705827 0.06358989
0000f0 57 ff 20 4c fb 4c ec ce 1a a6 15 0e 35 f1 31 d8
       0.1455874 -0.0016734183 0.053549387 0.12717979 -0.008367091 0.12717979 -0.033468366 -0.083670914 0.043508876 -0.15060765 0.035141785 0.023427857 0.088691175 -0.025101274 0.0819975 -0.06693673

sequential/model/conv1/Conv2D;StatefulPartitionedCall/sequential/model/conv1/Conv2D i1 [8, 3, 3, 3]
000000 d7 06 e2 f0 f2 e9 f5 f3 13 01 2c 0d 1d 1a 15 ef
       -41 6 -30 -16 -14 -23 -11 -13 19 1 44 13 29 26 21 -17
000010 15 f1 7d 68 4c 7f 6e 53 0f 3f d6 f8 4a c0 c7 5b
       21 -15 125 104 76 127 110 83 15 63 -42 -8 74 -64 -57 91
000020 df cd 37 fc e8 6c ae 9e 7f e4 a8 46 0f e9 4a cd
       -33 -51 55 -4 -24 108 -82 -98 127 -28 -88 70 15 -23 74 -51
000030 c0 4a f6 cb 28 0b 2a 16 bf 56 0b 9f 46 f6 c4 50
       -64 74 -10 -53 40 11 42 22 -65 86 11 -97 70 -10 -60 80
000040 0d a4 7c 04 81 5b ed b6 32 f5 d8 44 f0 cb 32 e8
       13 -92 124 4 -127 91 -19 -74 50 -11 -40 68 -16 -53 50 -24
000050 e4 00 00 00 00 00 00 00 00 00 00 00 00 00 00 00
       -28 0 0 0 0 0 0 0 0 0 0 0 0 0 0 0
000060 00 00 00 00 00 00 00 00 00 00 00 00 e4 eb f3 55
       0 0 0 0 0 0 0 0 0 0 0 0 -28 -21 -13 85
000070 53 18 2a 7f 3e e6 e7 f6 75 29 fa 54 43 00 d7 ff
       83 24 42 127 62 -26 -25 -10 117 41 -6 84 67 0 -41 -1
000080 09 26 ff 05 d8 1f 15 17 3b 0b 1d 5a 22 f9 1d 0f
       9 38 -1 5 -40 31 21 23 59 11 29 90 34 -7 29 15
000090 5c 61 0c 43 7f 2a 03 24 1a 4b 1a f2 22 32 0f ff
       92 97 12 67 127 42 3 36 26 75 26 -14 34 50 15 -1
0000a0 07 0c b6 b3 b7 ab b6 81 ef ef 2e c5 a6 ca c7 b6
       7 12 -74 -77 -73 -85 -74 -127 -17 -17 46 -59 -90 -54 -57 -74
0000b0 8a fe da 0e e4 d1 3a dd e5 21 fb ee 2c 00 00 00
       -118 -2 -38 14 -28 -47 58 -35 -27 33 -5 -18 44 0 0 0
0000c0 00 00 00 00 00 00 00 00 00 00 00 00 00 00 00 00
       0 0 0 0 0 0 0 0 0 0 0 0 0 0 0 0
0000d0 00 00 00 00 00 00 00 00
       0 0 0 0 0 0 0 0

sequential/model/conv_pw_1/Conv2D;StatefulPartitionedCall/sequential/model/conv_pw_1/Conv2D i1 [16, 1, 1, 8]
000000 f5 e7 00 00 d3 81 ee 00 00 00 00 00 00 00 00 00
       -11 -25 0 0 -45 -127 -18 0 0 0 0 0 0 0 0 0
000010 0a fb 03 00 28 7f 11 00 00 00 00 00 00 00 00 00
       10 -5 3 0 40 127 17 0 0 0 0 0 0 0 0 0
000020 00 00 00 00 00 00 00 00 f2 d6 f7 00 ca 81 ec 00
       0 0 0 0 0 0 0 0 -14 -42 -9 0 -54 -127 -20 0
000030 ff 7f ff 00 00 02 00 00 00 11 81 00 02 ff 01 00
       -1 127 -1 0 0 2 0 0 0 17 -127 0 2 -1 1 0
000040 00 00 00 00 00 00 00 00 f8 ed 00 00 ed 81 eb 00
       0 0 0 0 0 0 0 0 -8 -19 0 0 -19 -127 -21 0
000050 00 00 00 00 00 00 00 00 00 00 00 00 00 00 00 00
       0 0 0 0 0 0 0 0 0 0 0 0 0 0 0 0
000060 ff 7f 10 00 00 00 ff 00 0b 0e 04 00 26 7f 11 00
       -1 127 16 0 0 0 -1 0 11 14 4 0 38 127 17 0
000070 00 00 00 00 00 00 00 00 00 00 00 00 00 00 00 00
       0 0 0 0 0 0 0 0 0 0 0 0 0 0 0 0

sequential/model/conv_pw_2/Conv2D;StatefulPartitionedCall/sequential/model/conv_pw_2/Conv2D i1 [32, 1, 1, 16]
000000 f4 00 7f 00 00 0a ec 02 00 09 00 00 06 26 00 00
       -12 0 127 0 0 10 -20 2 0 9 0 0 6 38 0 0
000010 81 00 0e 00 00 0c ff 00 00 08 00 00 00 f3 00 00
       -127 0 14 0 0 12 -1 0 0 8 0 0 0 -13 0 0
000020 ea 00 81 00 00 3c 00 00 00 03 00 00 06 73 00 00
       -22 0 -127 0 0 60 0 0 0 3 0 0 6 115 0 0
000030 df 00 a1 00 00 f8 02 00 00 03 00 00 05 7f 00 00
       -33 0 -95 0 0 -8 2 0 0 3 0 0 5 127 0 0
000040 d6 00 be 00 00 13 fd c5 00 f8 00 00 9d 81 00 00
       -42 0 -66 0 0 19 -3 -59 0 -8 0 0 -99 -127 0 0
000050 02 00 05 00 00 ff 72 35 00 00 00 00 81 08 00 00
       2 0 5 0 0 -1 114 53 0 0 0 0 -127 8 0 0
000060 00 00 02 00 00 00 13 7f 00 fe 00 00 f3 02 00 00
       0 0 2 0 0 0 19 127 0 -2 0 0 -13 2 0 0
000070 00 00 00 00 00 00 00 00 00 00 00 00 00 00 00 00
       0 0 0 0 0 0 0 0 0 0 0 0 0 0 0 0
000080 7e 00 a6 00 00 c9 d9 09 00 7f 00 00 3e c6 00 00
       126 0 -90 0 0 -55 -39 9 0 127 0 0 62 -58 0 0
000090 ff 00 fa 00 00 01 ee 7f 00 01 00 00 2b f9 00 00
       -1 0 -6 0 0 1 -18 127 0 1 0 0 43 -7 0 0
0000a0 00 00 00 00 00 00 00 00 00 00 00 00 00 00 00 00
       0 0 0 0 0 0 0 0 0 0 0 0 0 0 0 0
0000b0 01 00 fd 00 00 fe ba 7f 00 00 00 00 43 fe 00 00
       1 0 -3 0 0 -2 -70 127 0 0 0 0 67 -2 0 0
0000c0 0d 00 7f 00 00 f6 df fb 00 fe 00 00 fe 43 00 00
       13 0 127 0 0 -10 -33 -5 0 -2 0 0 -2 67 0 0
0000d0 4a 00 54 00 00 44 ea f9 00 fc 00 00 0c 7f 00 00
       74 0 84 0 0 68 -22 -7 0 -4 0 0 12 127 0 0
0000e0 d6 00 8f 00 00 ff 36 0d 00 f4 00 00 29 81 00 00
       -42 0 -113 0 0 -1 54 13 0 -12 0 0 41 -127 0 0
0000f0 7f 00 df 00 00 4c 17 f7 00 2a 00 00 00 b9 00 00
       127 0 -33 0 0 76 23 -9 0 42 0 0 0 -71 0 0

sequential/model/conv_pw_3/Conv2D;StatefulPartitionedCall/sequential/model/conv_pw_3/Conv2D i1 [32, 1, 1, 32]
000000 d4 01 f4 c0 18 f8 f4 00 05 03 00 01 11 03 a4 13
       -44 1 -12 -64 24 -8 -12 0 5 3 0 1 17 3 -92 19
000010 0a d4 88 e8 f7 e7 16 0b 81 19 9a 0c 03 74 1d cd
       10 -44 -120 -24 -9 -25 22 11 -127 25 -102 12 3 116 29 -51
000020 cb 5f b6 e9 0f f3 0a 00 4a 02 00 fb 40 d3 1e 1a
       -53 95 -74 -23 15 -13 10 0 74 2 0 -5 64 -45 30 26
000030 c3 f9 07 77 fa ec ce 95 5a fb 81 29 f4 25 08 df
       -61 -7 7 119 -6 -20 -50 -107 90 -5 -127 41 -12 37 8 -33
000040 02 06 ce c8 05 f2 03 00 44 0d 00 fd f2 f1 25 0f
       2 6 -50 -56 5 -14 3 0 68 13 0 -3 -14 -15 37 15
000050 f4 ff 7f fa 03 03 0c 07 5d 02 1e 02 0d 0f f9 0d
       -12 -1 127 -6 3 3 12 7 93 2 30 2 13 15 -7 13
000060 00 00 07 06 df 05 ad 00 14 fc 00 ef 01 05 d5 04
       0 0 7 6 -33 5 -83 0 20 -4 0 -17 1 5 -43 4
000070 00 06 05 ff 0a 07 03 ff 08 03 09 01 7f 06 ba 04
       0 6 5 -1 10 7 3 -1 8 3 9 1 127 6 -70 4
000080 cf c2 3a c7 07 08 f4 00 bb f6 00 01 15 14 31 18
       -49 -62 58 -57 7 8 -12 0 -69 -10 0 1 21 20 49 24
000090 e9 09 f3 ee fb f4 d6 ee 8c f2 7f 01 0b 1c 0e 6a
       -23 9 -13 -18 -5 -12 -42 -18 -116 -14 127 1 11 28 14 106
0000a0 17 f9 18 0a 81 e9 f4 00 fe 05 00 27 05 fe 64 fe
       23 -7 24 10 -127 -23 -12 0 -2 5 0 39 5 -2 100 -2
0000b0 04 e9 05 ff 04 0d 07 07 0f 0a fc f6 6f 11 b5 1d
       4 -23 5 -1 4 13 7 7 15 10 -4 -10 111 17 -75 29
0000c0 7c 3d d4 01 12 e2 f0 00 2a 10 00 fe c8 2c 7f df
       124 61 -44 1 18 -30 -16 0 42 16 0 -2 -56 44 127 -33
0000d0 02 f0 ef 30 fa 03 1b b9 2f 0e 00 ea fa c9 0c eb
       2 -16 -17 48 -6 3 27 -71 47 14 0 -22 -6 -55 12 -21
0000e0 2a ca 04 07 01 05 fa 00 2a 16 00 fe 25 19 33 4d
       42 -54 4 7 1 5 -6 0 42 22 0 -2 37 25 51 77
0000f0 c3 f3 30 c3 f8 ec d8 a3 7f 04 1b ed f4 17 ee 0e
       -61 -13 48 -61 -8 -20 -40 -93 127 4 27 -19 -12 23 -18 14

sequential/model/conv_pw_4/Conv2D;StatefulPartitionedCall/sequential/model/conv_pw_4/Conv2D i1 [64, 1, 1, 32]
000000 01 cb 02 fa e2 fd e4 7f fe 1f ff f7 e4 f8 ff d9
       1 -53 2 -6 -30 -3 -28 127 -2 31 -1 -9 -28 -8 -1 -39
000010 00 fe 05 00 f9 48 05 4e c3 fa 10 06 de eb fd f9
       0 -2 5 0 -7 72 5 78 -61 -6 16 6 -34 -21 -3 -7
000020 01 f5 ff 00 0c f8 12 df 05 db fa 05 11 64 16 11
       1 -11 -1 0 12 -8 18 -33 5 -37 -6 5 17 100 22 17
000030 81 fd 81 00 f4 1d 05 42 07 fe fd 29 0e 00 a0 04
       -127 -3 -127 0 -12 29 5 66 7 -2 -3 41 14 0 -96 4
000040 08 01 16 05 05 02 00 03 08 fa fb 07 19 f8 02 12
       8 1 22 5 5 2 0 3 8 -6 -5 7 25 -8 2 18
000050 7f 04 c9 00 1f fa 1c f6 f4 23 04 08 02 27 06 ff
       127 4 -55 0 31 -6 28 -10 -12 35 4 8 2 39 6 -1
000060 fe 4c 08 07 fb f1 fe ca f8 f6 fb 06 0c 02 05 08
       -2 76 8 7 -5 -15 -2 -54 -8 -10 -5 6 12 2 5 8
000070 fb f5 fe 00 02 81 08 0c 4f f3 0b 14 00 ee 00 02
       -5 -11 -2 0 2 -127 8 12 79 -13 11 20 0 -18 0 2
000080 f5 f5 fe 81 fd f5 fe f8 fe 12 cd 6b 05 03 f6 fd
       -11 -11 -2 -127 -3 -11 -2 -8 -2 18 -51 107 5 3 -10 -3
000090 ff fc 00 00 03 0d fe fe 01 ff 01 f7 fc ff fc e8
       -1 -4 0 0 3 13 -2 -2 1 -1 1 -9 -4 -1 -4 -24
0000a0 0b fd f7 f3 02 29 ff fa fc 1a 01 fa fb 04 fd ee
       11 -3 -9 -13 2 41 -1 -6 -4 26 1 -6 -5 4 -3 -18
0000b0 f8 25 02 00 fb 09 f4 01 f4 fe 7f fb 02 01 fd d3
       -8 37 2 0 -5 9 -12 1 -12 -2 127 -5 2 1 -3 -45
0000c0 eb 08 00 a8 f9 fd ff 17 0b 23 81 f3 01 f4 d3 28
       -21 8 0 -88 -7 -3 -1 23 11 35 -127 -13 1 -12 -45 40
0000d0 14 05 11 00 07 e7 00 4c e3 e2 f0 f1 f7 dd fd 03
       20 5 17 0 7 -25 0 76 -29 -30 -16 -15 -9 -35 -3 3
0000e0 11 12 16 f3 09 e8 0a 1f e7 ee fb f7 fb 05 2b f5
       17 18 22 -13 9 -24 10 31 -25 -18 -5 -9 -5 5 43 -11
0000f0 96 eb 9d 00 de e8 25 f2 f9 22 fd 7f 0c 1a 12 dc
       -106 -21 -99 0 -34 -24 37 -14 -7 34 -3 127 12 26 18 -36

sequential/model/conv_pw_5/Conv2D;StatefulPartitionedCall/sequential/model/conv_pw_5/Conv2D i1 [64, 1, 1, 64]
000000 1c 05 f8 00 00 01 03 f1 fb f1 06 fa f6 f5 81 01
       28 5 -8 0 0 1 3 -15 -5 -15 6 -6 -10 -11 -127 1
000010 f5 2e 01 f9 f9 06 ff fe 04 0c fa f1 10 1c 04 fc
       -11 46 1 -7 -7 6 -1 -2 4 12 -6 -15 16 28 4 -4
000020 0e 00 01 0a 01 08 0d f0 02 07 04 ff fe fb fa ff
       14 0 1 10 1 8 13 -16 2 7 4 -1 -2 -5 -6 -1
000030 f3 05 f9 0c ec ff 01 ff 02 04 ea 08 01 f5 07 1a
       -13 5 -7 12 -20 -1 1 -1 2 4 -22 8 1 -11 7 26
000040 f7 fc fb f2 05 1e fe 05 fb fc 7f 11 fb f6 f9 ef
       -9 -4 -5 -14 5 30 -2 5 -5 -4 127 17 -5 -10 -7 -17
000050 fb fe ed 1c db fe fc 08 ee 02 0f fd 0c 03 09 04
       -5 -2 -19 28 -37 -2 -4 8 -18 2 15 -3 12 3 9 4
000060 04 03 06 ff 03 fa 0a 00 fd f8 fb f9 00 03 fe fd
       4 3 6 -1 3 -6 10 0 -3 -8 -5 -7 0 3 -2 -3
000070 01 f0 02 0f fb ba 01 0d ff f9 08 fb 01 06 01 01
       1 -16 2 15 -5 -70 1 13 -1 -7 8 -5 1 6 1 1
000080 27 5a e4 12 f7 ee d8 91 c6 cc 0e 04 d9 2d 24 fc
       39 90 -28 18 -9 -18 -40 -111 -58 -52 14 4 -39 45 36 -4
000090 8e 2b 02 ed fc f2 e4 35 ec fa 06 0b 09 f2 3a 0c
       -114 43 2 -19 -4 -14 -28 53 -20 -6 6 11 9 -14 58 12
0000a0 fd 32 0a e1 f8 37 0e 17 1b 0e f7 b5 0b d4 f7 ff
       -3 50 10 -31 -8 55 14 23 27 14 -9 -75 11 -44 -9 -1
0000b0 43 11 cf a4 17 ff 73 ea f8 0b 58 f5 16 fb 7f ea
       67 17 -49 -92 23 -1 115 -22 -8 11 88 -11 22 -5 127 -22
0000c0 ee db f4 ff 01 f1 11 ee 0b f9 f7 e4 1c f8 fe 14
       -18 -37 -12 -1 1 -15 17 -18 11 -7 -9 -28 28 -8 -2 20
0000d0 0d 12 fc ef 7f c7 02 38 20 25 1c fd 4d 05 0a f6
       13 18 -4 -17 127 -57 2 56 32 37 28 -3 77 5 10 -10
0000e0 46 19 fd df d0 e0 e9 f7 fe e4 17 ea 12 08 c6 fb
       70 25 -3 -33 -48 -32 -23 -9 -2 -28 23 -22 18 8 -58 -5
0000f0 de 0c 90 d0 ea 02 02 d5 de 47 22 2c 12 f9 02 2c
       -34 12 -112 -48 -22 2 2 -43 -34 71 34 44 18 -7 2 44

sequential/model/conv_pw_6/Conv2D;StatefulPartitionedCall/sequential/model/conv_pw_6/Conv2D i1 [128, 1, 1, 64]
000000 08 a2 15 05 f7 ec 2e 07 f6 f9 f9 0b f0 0d 09 fc
       8 -94 21 5 -9 -20 46 7 -10 -7 -7 11 -16 13 9 -4
000010 14 ff f3 0c d0 19 f5 ff ef fb f8 ea fb fc 0f 02
       20 -1 -13 12 -48 25 -11 -1 -17 -5 -8 -22 -5 -4 15 2
000020 fa 00 16 25 20 ee 14 47 00 cc 0d e9 fb d7 0d fb
       -6 0 22 37 32 -18 20 71 0 -52 13 -23 -5 -41 13 -5
000030 f3 f1 f8 f3 f0 00 ed f9 7f fc 14 16 fd 07 05 f7
       -13 -15 -8 -13 -16 0 -19 -7 127 -4 20 22 -3 7 5 -9
000040 0a f4 28 0f dd fb cf fc f1 0b e8 13 90 01 e9 0a
       10 -12 40 15 -35 -5 -49 -4 -15 11 -24 19 -112 1 -23 10
000050 f3 cd e1 e2 00 51 0c f9 ea 0d 0a c2 13 12 fc ad
       -13 -51 -31 -30 0 81 12 -7 -22 13 10 -62 19 18 -4 -83
000060 c7 e2 e4 eb 7f d6 fc 03 e2 1e 24 12 2e 43 47 ea
       -57 -30 -28 -21 127 -42 -4 3 -30 30 36 18 46 67 71 -22
000070 0a 23 46 ea f9 eb 14 0e fc 3b 25 cd 1b fd fb 0d
       10 35 70 -22 -7 -21 20 14 -4 59 37 -51 27 -3 -5 13
000080 05 02 04 19 02 f7 f8 81 04 fd 0e 0a fd 01 f7 f9
       5 2 4 25 2 -9 -8 -127 4 -3 14 10 -3 1 -9 -7
000090 00 fd 04 ff 06 ff 10 ff 02 fc fc f5 fd 11 07 fe
       0 -3 4 -1 6 -1 16 -1 2 -4 -4 -11 -3 17 7 -2
0000a0 ef 7f 0c 09 f6 02 03 02 05 01 13 04 fd fd fd ff
       -17 127 12 9 -10 2 3 2 5 1 19 4 -3 -3 -3 -1
0000b0 ee 26 08 07 01 00 fa 08 03 ea ff 0a 0a 03 f9 f5
       -18 38 8 7 1 0 -6 8 3 -22 -1 10 10 3 -7 -11
0000c0 ee ff d0 18 f3 f6 0b 06 03 1a f4 01 dd f5 8f 1f
       -18 -1 -48 24 -13 -10 11 6 3 26 -12 1 -35 -11 -113 31
0000d0 f4 15 e7 ed 02 21 0c fd 02 59 09 14 e1 e6 09 47
       -12 21 -25 -19 2 33 12 -3 2 89 9 20 -31 -26 9 71
0000e0 fd f4 fa e5 41 02 81 04 ea f2 00 08 08 04 35 21
       -3 -12 -6 -27 65 2 -127 4 -22 -14 0 8 8 4 53 33
0000f0 ed 06 f6 14 01 fb d7 e6 0d 04 ec 4a 03 07 ee 16
       -19 6 -10 20 1 -5 -41 -26 13 4 -20 74 3 7 -18 22

sequential/model/conv_pw_7/Conv2D;StatefulPartitionedCall/sequential/model/conv_pw_7/Conv2D i1 [128, 1, 1, 128]
000000 14 d0 09 e8 00 ca fa c7 fd f7 17 fb f0 c5 01 26
       20 -48 9 -24 0 -54 -6 -57 -3 -9 23 -5 -16 -59 1 38
000010 49 0e 16 19 ed 20 0f 0a d1 ec f0 ef 33 de 12 11
       73 14 22 25 -19 32 15 10 -47 -20 -16 -17 51 -34 18 17
000020 ec 06 c4 04 f8 fb fd cd 03 fe e2 f4 10 16 00 32
       -20 6 -60 4 -8 -5 -3 -51 3 -2 -30 -12 16 22 0 50
000030 f6 34 f8 02 76 00 10 de fb fa ea 07 b6 1e f9 ee
       -10 52 -8 2 118 0 16 -34 -5 -6 -22 7 -74 30 -7 -18
000040 9c 7f 28 04 fc fe eb f4 f1 01 0c 2e 07 ff 30 f1
       -100 127 40 4 -4 -2 -21 -12 -15 1 12 46 7 -1 48 -15
000050 12 04 ff 1d 12 dd 0f 3d cb c3 e3 0a 1b fe f2 f5
       18 4 -1 29 18 -35 15 61 -53 -61 -29 10 27 -2 -14 -11
000060 29 f4 10 53 f1 0b fd 06 16 16 0b d1 f0 01 1d 22
       41 -12 16 83 -15 11 -3 6 22 22 11 -47 -16 1 29 34
000070 f9 e1 0d 01 32 68 0d 11 e8 e9 05 1b 00 f8 32 23
       -7 -31 13 1 50 104 13 17 -24 -23 5 27 0 -8 50 35
000080 0a d6 03 1f 00 0f f8 fe e7 06 08 ff fc 08 09 02
       10 -42 3 31 0 15 -8 -2 -25 6 8 -1 -4 8 9 2
000090 fd 28 00 ed 01 07 fc 03 ed fb fa fb ef 21 f4 14
       -3 40 0 -19 1 7 -4 3 -19 -5 -6 -5 -17 33 -12 20
0000a0 fc 08 fc 09 12 dd fb 19 06 00 f3 11 0d fa ef fc
       -4 8 -4 9 18 -35 -5 25 6 0 -13 17 13 -6 -17 -4
0000b0 f4 04 02 f8 14 ff fe d9 fa 03 07 01 d3 06 fd fe
       -12 4 2 -8 20 -1 -2 -39 -6 3 7 1 -45 6 -3 -2
0000c0 e9 df fc 01 01 ff f4 11 ed fa fd f3 09 ef 2d 14
       -23 -33 -4 1 1 -1 -12 17 -19 -6 -3 -13 9 -17 45 20
0000d0 1b 05 03 f2 02 21 7f ee fd 02 2b fe d4 fc f2 f4
       27 5 3 -14 2 33 127 -18 -3 2 43 -2 -44 -4 -14 -12
0000e0 03 0c f6 1c 01 fb fe 0a 1f f1 0d fe fe f8 e8 f4
       3 12 -10 28 1 -5 -2 10 31 -15 13 -2 -2 -8 -24 -12
0000f0 f3 fc 06 0e ef 1b f7 1d fa 0e 03 e5 0c f8 ff f7
       -13 -4 6 14 -17 27 -9 29 -6 14 3 -27 12 -8 -1 -9

sequential/model/conv_pw_8/Conv2D;StatefulPartitionedCall/sequential/model/conv_pw_8/Conv2D i1 [128, 1, 1, 128]
000000 db 69 ee 13 1c 23 19 11 fd da 10 ef fd 9c 18 03
       -37 105 -18 19 28 35 25 17 -3 -38 16 -17 -3 -100 24 3
000010 d6 d5 0f f8 10 37 ad d3 21 fd 35 48 fc 07 0b 44
       -42 -43 15 -8 16 55 -83 -45 33 -3 53 72 -4 7 11 68
000020 08 ea 4a 26 20 3c f5 16 ce 15 0f 3f ff 13 1d fc
       8 -22 74 38 32 60 -11 22 -50 21 15 63 -1 19 29 -4
000030 32 2a 1a 0f 12 07 3e 4f 0f 6b 0a 20 f5 41 fa 4b
       50 42 26 15 18 7 62 79 15 107 10 32 -11 65 -6 75
000040 0b 28 dc 0b 11 36 13 f9 43 30 17 fa f3 18 3a 0c
       11 40 -36 11 17 54 19 -7 67 48 23 -6 -13 24 58 12
000050 fc 13 f0 2b f2 2c de 16 0a 05 2b 0c e9 0c ee 36
       -4 19 -16 43 -14 44 -34 22 10 5 43 12 -23 12 -18 54
000060 14 7f fd ed f6 01 39 00 f9 d3 bf c6 21 48 d2 fe
       20 127 -3 -19 -10 1 57 0 -7 -45 -65 -58 33 72 -46 -2
000070 02 0f ce f3 1b f6 45 4b e3 18 0a e8 0a f4 aa 08
       2 15 -50 -13 27 -10 69 75 -29 24 10 -24 10 -12 -86 8
000080 cd f3 e3 f1 e4 fa e2 55 db 73 0a 14 39 f8 eb 23
       -51 -13 -29 -15 -28 -6 -30 85 -37 115 10 20 57 -8 -21 35
000090 06 f0 f0 2e 27 42 15 a1 13 08 f8 e8 f4 da 09 11
       6 -16 -16 46 39 66 21 -95 19 8 -8 -24 -12 -38 9 17
0000a0 51 36 2b 07 d6 18 27 f9 1f e3 35 f0 c1 27 f8 08
       81 54 43 7 -42 24 39 -7 31 -29 53 -16 -63 39 -8 8
0000b0 2d 91 11 fe f8 ea 5b 2a 45 1b dd 24 f9 c6 d4 f2
       45 -111 17 -2 -8 -22 91 42 69 27 -35 36 -7 -58 -44 -14
0000c0 b8 dd 3f 1c 17 34 97 08 11 e7 2a f1 f7 c0 2c 26
       -72 -35 63 28 23 52 -105 8 17 -25 42 -15 -9 -64 44 38
0000d0 24 fe cd 16 f6 35 d3 d3 f6 09 e6 2e de 20 11 c8
       36 -2 -51 22 -10 53 -45 -45 -10 9 -26 46 -34 32 17 -56
0000e0 df fe c3 5d 1e 7f 16 cc d9 84 0b 0c 1c e6 f4 0f
       -33 -2 -61 93 30 127 22 -52 -39 -124 11 12 28 -26 -12 15
0000f0 de f1 dc a9 18 1f 0d d3 0e f9 ee 18 fa 08 f4 16
       -34 -15 -36 -87 24 31 13 -45 14 -7 -18 24 -6 8 -12 22

sequential/model/conv_pw_9/Conv2D;StatefulPartitionedCall/sequential/model/conv_pw_9/Conv2D i1 [128, 1, 1, 128]
000000 ee f6 e9 fd fc e2 2a a6 14 f4 e8 02 e7 bf 22 fd
       -18 -10 -23 -3 -4 -30 42 -90 20 -12 -24 2 -25 -65 34 -3
000010 01 06 e9 d6 02 2f 36 11 35 b9 2c bd c5 09 e5 19
       1 6 -23 -42 2 47 54 17 53 -71 44 -67 -59 9 -27 25
000020 e2 f3 f9 2d 1c 1f fe e5 ea 27 18 12 1b 1e 01 55
       -30 -13 -7 45 28 31 -2 -27 -22 39 24 18 27 30 1 85
000030 ef 02 14 c3 07 16 10 ea 7f 22 03 01 4b 1e ec 73
       -17 2 20 -61 7 22 16 -22 127 34 3 1 75 30 -20 115
000040 20 ed ea 24 21 03 d4 c8 02 ee 43 0e 10 08 11 e8
       32 -19 -22 36 33 3 -44 -56 2 -18 67 14 16 8 17 -24
000050 e0 1f e6 13 40 17 d1 f8 0d 17 d6 ee fe e6 16 1e
       -32 31 -26 19 64 23 -47 -8 13 23 -42 -18 -2 -26 22 30
000060 6a 54 f4 0f 00 23 e7 ad 2e 06 21 02 29 57 5e ef
       106 84 -12 15 0 35 -25 -83 46 6 33 2 41 87 94 -17
000070 d6 2a f7 1a 69 2c ee 61 38 0c 49 17 04 35 08 f1
       -42 42 -9 26 105 44 -18 97 56 12 73 23 4 53 8 -15
000080 d3 ce 23 21 48 2f 02 27 1f 0c 0b 29 1b c8 a0 04
       -45 -50 35 33 72 47 2 39 31 12 11 41 27 -56 -96 4
000090 e3 30 35 f3 4f f9 34 18 db d4 32 d2 16 19 17 e0
       -29 48 53 -13 79 -7 52 24 -37 -44 50 -46 22 25 23 -32
0000a0 10 de 1a 61 08 cf 13 ad c2 55 5f 05 0d f1 57 cb
       16 -34 26 97 8 -49 19 -83 -62 85 95 5 13 -15 87 -53
0000b0 db e6 19 ff 0b ee f6 25 16 01 17 1a ef 1e dd 20
       -37 -26 25 -1 11 -18 -10 37 22 1 23 26 -17 30 -35 32
0000c0 11 f0 07 ef fd bb 09 f1 12 f5 2c f1 f9 ce 07 dd
       17 -16 7 -17 -3 -69 9 -15 18 -11 44 -15 -7 -50 7 -35
0000d0 26 ff d3 0d db 56 f8 1b 02 53 d3 d4 fd d5 af 04
       38 -1 -45 13 -37 86 -8 27 2 83 -45 -44 -3 -43 -81 4
0000e0 06 17 b5 00 0c d9 2f 07 81 c1 d8 0c fd 17 47 1d
       6 23 -75 0 12 -39 47 7 -127 -63 -40 12 -3 23 71 29
0000f0 3d 0f ec d7 87 ea 2f f4 00 de dc e6 d7 01 fe d2
       61 15 -20 -41 -121 -22 47 -12 0 -34 -36 -26 -41 1 -2 -46

sequential/model/conv_pw_10/Conv2D;StatefulPartitionedCall/sequential/model/conv_pw_10/Conv2D i1 [128, 1, 1, 128]
000000 01 d9 f5 fa 0e 19 1a b2 2d ed 13 18 e3 14 f7 f5
       1 -39 -11 -6 14 25 26 -78 45 -19 19 24 -29 20 -9 -11
000010 dc 11 2b f4 06 cd ec e8 fe 09 2e 20 f9 f4 19 dd
       -36 17 43 -12 6 -51 -20 -24 -2 9 46 32 -7 -12 25 -35
000020 df 54 ee 09 ce 10 eb ed 02 40 e3 eb 27 e2 dc 23
       -33 84 -18 9 -50 16 -21 -19 2 64 -29 -21 39 -30 -36 35
000030 29 dc 03 0b 42 1b 0c 37 f9 ca ed 11 f8 fc e5 e6
       41 -36 3 11 66 27 12 55 -7 -54 -19 17 -8 -4 -27 -26
000040 22 14 fd f8 00 ff e5 e3 e7 06 0f ec f3 0a ec 1a
       34 20 -3 -8 0 -1 -27 -29 -25 6 15 -20 -13 10 -20 26
000050 1d 42 e8 4f da 21 c2 18 ef 03 31 10 1f 01 de ea
       29 66 -24 79 -38 33 -62 24 -17 3 49 16 31 1 -34 -22
000060 02 fb f1 27 d3 f7 03 10 de 1b ec 4a fd ea 15 e9
       2 -5 -15 39 -45 -9 3 16 -34 27 -20 74 -3 -22 21 -23
000070 03 7f e6 05 fa 08 03 d0 03 f0 ea 0b c3 f5 eb cc
       3 127 -26 5 -6 8 3 -48 3 -16 -22 11 -61 -11 -21 -52
000080 f9 f5 f9 f1 09 02 0f f2 f6 f0 fb 00 ed 81 fc f9
       -7 -11 -7 -15 9 2 15 -14 -10 -16 -5 0 -19 -127 -4 -7
000090 f8 15 f6 09 fa ef e3 05 fc ef 25 fc 01 fa 38 f3
       -8 21 -10 9 -6 -17 -29 5 -4 -17 37 -4 1 -6 56 -13
0000a0 f8 d8 fa f5 05 f6 00 25 f0 08 fb f8 f1 f9 05 03
       -8 -40 -6 -11 5 -10 0 37 -16 8 -5 -8 -15 -7 5 3
0000b0 ff 02 fd 0e 04 08 d3 0f fa f1 dc fb f7 f5 10 f5
       -1 2 -3 14 4 8 -45 15 -6 -15 -36 -5 -9 -11 16 -11
0000c0 04 f6 1a 0a f1 d6 01 e8 00 fc 29 f6 04 fd fb dc
       4 -10 26 10 -15 -42 1 -24 0 -4 41 -10 4 -3 -5 -36
0000d0 28 03 cb 00 ff 06 fe 09 f8 dd 0b 01 10 f4 dd f1
       40 3 -53 0 -1 6 -2 9 -8 -35 11 1 16 -12 -35 -15
0000e0 f4 02 0f f5 04 07 09 fe fe fe 04 fb 02 f9 02 fd
       -12 2 15 -11 4 7 9 -2 -2 -2 4 -5 2 -7 2 -3
0000f0 f6 ff 05 f8 fd 18 03 e6 ff fe fe f1 f7 09 02 fc
       -10 -1 5 -8 -3 24 3 -26 -1 -2 -2 -15 -9 9 2 -4

sequential/model/conv_pw_11/Conv2D;StatefulPartitionedCall/sequential/model/conv_pw_11/Conv2D i1 [128, 1, 1, 128]
000000 30 f0 f0 e8 c2 26 11 06 3c 2d f5 08 cc e1 02 30
       48 -16 -16 -24 -62 38 17 6 60 45 -11 8 -52 -31 2 48
000010 e5 de 5b dd f7 03 1b f2 0a 1a fc f4 18 28 10 16
       -27 -34 91 -35 -9 3 27 -14 10 26 -4 -12 24 40 16 22
000020 1f 38 fb db 0d d1 ef ff 1e ce 68 19 d4 51 4c ed
       31 56 -5 -37 13 -47 -17 -1 30 -50 104 25 -44 81 76 -19
000030 1f df f8 e6 13 ed cb 1a ec 10 28 e6 05 f9 57 dc
       31 -33 -8 -26 19 -19 -53 26 -20 16 40 -26 5 -7 87 -36
000040 fa 1a b4 f2 fe e2 ea 0e c9 00 3f 1e 4d b6 f7 7f
       -6 26 -76 -14 -2 -30 -22 14 -55 0 63 30 77 -74 -9 127
000050 f8 27 9e f8 ec ee c8 d0 de d4 e6 2d e0 f4 4f 3a
       -8 39 -98 -8 -20 -18 -56 -48 -34 -44 -26 45 -32 -12 79 58
000060 2f f4 f2 c4 e0 f6 06 f8 17 dc f3 eb 13 f4 fb 27
       47 -12 -14 -60 -32 -10 6 -8 23 -36 -13 -21 19 -12 -5 39
000070 df dd e2 1c 63 fd 1d 2a ed 0b d5 de f9 ff d1 0a
       -33 -35 -30 28 99 -3 29 42 -19 11 -43 -34 -7 -1 -47 10
000080 1e 2c f6 c9 cf 21 4e e0 04 0b fe 03 14 f4 09 2a
       30 44 -10 -55 -49 33 78 -32 4 11 -2 3 20 -12 9 42
000090 88 f2 fe c3 17 1d f7 d8 31 31 c0 ff 4a e7 e5 f7
       -120 -14 -2 -61 23 29 -9 -40 49 49 -64 -1 74 -25 -27 -9
0000a0 f2 fe 25 fc 20 f4 30 b3 d7 37 40 8d 2a 24 e0 2a
       -14 -2 37 -4 32 -12 48 -77 -41 55 64 -115 42 36 -32 42
0000b0 7f fe 01 3a d0 2b f6 fa da c4 bd f9 1d 00 09 1b
       127 -2 1 58 -48 43 -10 -6 -38 -60 -67 -7 29 0 9 27
0000c0 e9 d8 d1 bd f6 d6 0f 4c 2d 2e 29 c6 0e 2f ed 2e
       -23 -40 -47 -67 -10 -42 15 76 45 46 41 -58 14 47 -19 46
0000d0 f6 f8 38 43 e9 a4 54 20 cc 2d ba 1e f5 fb bf df
       -10 -8 56 67 -23 -92 84 32 -52 45 -70 30 -11 -5 -65 -33
0000e0 da 59 e9 f2 11 0c 0c 5f 0b e5 09 f2 c3 1c 4b f8
       -38 89 -23 -14 17 12 12 95 11 -27 9 -14 -61 28 75 -8
0000f0 4d d7 db 2b 1b 12 04 ee 30 c5 8a 0f 0b ce 37 f0
       77 -41 -37 43 27 18 4 -18 48 -59 -118 15 11 -50 55 -16

sequential/model/conv_pw_12/Conv2D;StatefulPartitionedCall/sequential/model/conv_pw_12/Conv2D i1 [256, 1, 1, 128]
000000 db df cb 0b 03 ea 2c 1f f4 00 d7 fe 2a 16 0f ee
       -37 -33 -53 11 3 -22 44 31 -12 0 -41 -2 42 22 15 -18
000010 ef 13 98 2e 1b 3f 35 01 d4 fc aa f8 bf 13 d3 01
       -17 19 -104 46 27 63 53 1 -44 -4 -86 -8 -65 19 -45 1
000020 13 20 4f f1 46 e5 17 17 b5 77 ad 9a dd 15 f6 17
       19 32 79 -15 70 -27 23 23 -75 119 -83 -102 -35 21 -10 23
000030 ef dc 11 c9 cf fb 24 37 7f de be e9 03 40 06 1a
       -17 -36 17 -55 -49 -5 36 55 127 -34 -66 -23 3 64 6 26
000040 00 09 43 27 f5 eb f8 fe 57 de 07 0d bf 06 8d 28
       0 9 67 39 -11 -21 -8 -2 87 -34 7 13 -65 6 -115 40
000050 c9 d3 29 f8 bb ce 0a fd f5 df 5e a7 18 d8 fd 4f
       -55 -45 41 -8 -69 -50 10 -3 -11 -33 94 -89 24 -40 -3 79
000060 d0 2b d4 2c e6 f6 b3 ff 24 e0 04 3b 5e c4 e0 21
       -48 43 -44 44 -26 -10 -77 -1 36 -32 4 59 94 -60 -32 33
000070 cb f8 e8 ab ea f5 0c 1b 1c da cb 5b 94 35 03 fa
       -53 -8 -24 -85 -22 -11 12 27 28 -38 -53 91 -108 53 3 -6
000080 21 d2 12 df f9 e5 ea 25 fe 02 ff fc cd db 12 1e
       33 -46 18 -33 -7 -27 -22 37 -2 2 -1 -4 -51 -37 18 30
000090 0f 05 fe 1e 09 f7 e3 fb dc 02 0d f8 f5 05 12 15
       15 5 -2 30 9 -9 -29 -5 -36 2 13 -8 -11 5 18 21
0000a0 15 f8 f0 31 13 15 00 f9 15 e5 31 3a f9 08 0f 01
       21 -8 -16 49 19 21 0 -7 21 -27 49 58 -7 8 15 1
0000b0 14 f1 fd f2 00 12 0a 06 f0 02 21 42 d6 d0 0f 2c
       20 -15 -3 -14 0 18 10 6 -16 2 33 66 -42 -48 15 44
0000c0 fd 09 13 00 f8 f4 fd ee 0b f2 f7 01 f5 18 f7 16
       -3 9 19 0 -8 -12 -3 -18 11 -14 -9 1 -11 24 -9 22
0000d0 f4 fa ca 10 15 11 f4 d8 2c 0e 15 32 df 07 02 0b
       -12 -6 -54 16 21 17 -12 -40 44 14 21 50 -33 7 2 11
0000e0 ec 02 1c 2e 41 f9 e5 3a 4e c5 d2 1c 32 f5 e9 17
       -20 2 28 46 65 -7 -27 58 78 -59 -46 28 50 -11 -23 23
0000f0 1f 4a 04 06 f7 11 16 03 01 3f f1 7f ee ac 04 0b
       31 74 4 6 -9 17 22 3 1 63 -15 127 -18 -84 4 11

sequential/model/conv_pw_13/Conv2D;StatefulPartitionedCall/sequential/model/conv_pw_13/Conv2D i1 [256, 1, 1, 256]
000000 14 de 06 12 eb d8 f8 cc 15 1d e9 de f4 0c 3e d5
       20 -34 6 18 -21 -40 -8 -52 21 29 -23 -34 -12 12 62 -43
000010 16 da e1 ee ed fe 10 09 f1 3d fb dc 13 d5 f5 df
       22 -38 -31 -18 -19 -2 16 9 -15 61 -5 -36 19 -43 -11 -33
000020 1a 26 0c 05 28 1f d3 f8 2f e6 f0 05 31 fa 35 cd
       26 38 12 5 40 31 -45 -8 47 -26 -16 5 49 -6 53 -51
000030 3d 25 da 18 e3 21 e5 17 eb f9 1f 34 0b e9 1e 1c
       61 37 -38 24 -29 33 -27 23 -21 -7 31 52 11 -23 30 28
000040 13 eb ea c0 10 35 01 17 55 c2 31 f0 e1 fe 17 16
       19 -21 -22 -64 16 53 1 23 85 -62 49 -16 -31 -2 23 22
000050 3f f1 f6 aa e9 f9 21 ab 20 4b da 1d a8 17 05 b0
       63 -15 -10 -86 -23 -7 33 -85 32 75 -38 29 -88 23 5 -80
000060 f4 10 b9 1e d5 d2 46 18 d4 f7 01 ac 11 cd 4e 07
       -12 16 -71 30 -43 -46 70 24 -44 -9 1 -84 17 -51 78 7
000070 ea 09 04 a9 09 09 07 f2 96 00 0f ea fb 16 e3 0c
       -22 9 4 -87 9 9 7 -14 -106 0 15 -22 -5 22 -29 12
000080 f1 a2 09 fa fc e1 db f4 eb ee 15 0b fe bb 2d cf
       -15 -94 9 -6 -4 -31 -37 -12 -21 -18 21 11 -2 -69 45 -49
000090 2f c8 2c e8 09 24 f8 c0 d7 25 42 b8 d3 c4 24 d1
       47 -56 44 -24 9 36 -8 -64 -41 37 66 -72 -45 -60 36 -47
0000a0 dd 02 fc ce f9 db 14 24 fb 3a 14 1d dd 03 a2 06
       -35 2 -4 -50 -7 -37 20 36 -5 58 20 29 -35 3 -94 6
0000b0 cb 26 00 29 9f 01 1c db e3 f6 d4 9e f9 f4 08 48
       -53 38 0 41 -97 1 28 -37 -29 -10 -44 -98 -7 -12 8 72
0000c0 20 f8 1a 04 0c 81 fd e3 fc e6 06 f9 21 ec 25 25
       32 -8 26 4 12 -127 -3 -29 -4 -26 6 -7 33 -20 37 37
0000d0 15 b3 f9 e1 b5 ed bb 19 0d fa 09 19 1c bf 12 13
       21 -77 -7 -31 -75 -19 -69 25 13 -6 9 25 28 -65 18 19
0000e0 0a a6 21 fe 2e 0f 06 15 f8 2e df 0e f5 03 fa e0
       10 -90 33 -2 46 15 6 21 -8 46 -33 14 -11 3 -6 -32
0000f0 f9 00 53 10 be 2f 02 f6 23 fb 00 3d ff d6 8a 35
       -7 0 83 16 -66 47 2 -10 35 -5 0 61 -1 -42 -118 53

sequential/model/conv_dw_1_bn/FusedBatchNormV3;StatefulPartitionedCall/sequential/model/conv_dw_1_bn/FusedBatchNormV3;sequential/model/conv_dw_1/depthwise;StatefulPartitionedCall/sequential/model/conv_dw_1/depthwise i1 [1, 3, 3, 8]
000000 f8 f8 0a 75 3e 06 f1 d4 81 12 7f 7e 2b 05 fd 93
       -8 -8 10 117 62 6 -15 -44 -127 18 127 126 43 5 -3 -109
000010 07 f6 c8 7f 09 fd fd cb 07 1b 01 72 81 04 11 81
       7 -10 -56 127 9 -3 -3 -53 7 27 1 114 -127 4 17 -127
000020 d5 7f 5e 4f f9 81 7f 88 0f e6 db 24 09 21 f8 9b
       -43 127 94 79 -7 -127 127 -120 15 -26 -37 36 9 33 -8 -101
000030 02 ed f3 4b f9 05 f7 a7 00 f6 de 13 00 11 05 db
       2 -19 -13 75 -7 5 -9 -89 0 -10 -34 19 0 17 5 -37
000040 f8 f4 19 12 07 f9 0a c0
       -8 -12 25 18 7 -7 10 -64

sequential/model/conv_dw_2_bn/FusedBatchNormV3;StatefulPartitionedCall/sequential/model/conv_dw_2_bn/FusedBatchNormV3;sequential/model/conv_dw_2/depthwise;StatefulPartitionedCall/sequential/model/conv_dw_2/depthwise i1 [1, 3, 3, 16]
000000 4c ac 7f 9f a3 07 81 ee bc ea 7f 7d 06 d9 ab bc
       76 -84 127 -97 -93 7 -127 -18 -68 -22 127 125 6 -39 -85 -68
000010 b7 0a fe e0 9f 7f ec f8 99 7f 35 42 b9 0f c5 a2
       -73 10 -2 -32 -97 127 -20 -8 -103 127 53 66 -71 15 -59 -94
000020 f6 a2 0d a7 ad 08 f0 f9 f6 9e d2 af fd fa a9 81
       -10 -94 13 -89 -83 8 -16 -7 -10 -98 -46 -81 -3 -6 -87 -127
000030 7f fb d3 b2 e4 f0 d9 7f 81 ed 72 75 98 7f 81 12
       127 -5 -45 -78 -28 -16 -39 127 -127 -19 114 117 -104 127 -127 18
000040 9e a7 fa ea 81 83 f6 7b 0c 5a 02 1d 81 21 8c f0
       -98 -89 -6 -22 -127 -125 -10 123 12 90 2 29 -127 33 -116 -16
000050 ed 81 f8 43 a7 ef 09 0b 49 a9 cd ef e2 06 86 9a
       -19 -127 -8 67 -89 -17 9 11 73 -87 -51 -17 -30 6 -122 -102
000060 06 9b 0b 83 66 05 fc 01 a5 04 5c 7f da f6 da 2d
       6 -101 11 -125 102 5 -4 1 -91 4 92 127 -38 -10 -38 45
000070 f1 30 00 bf 26 02 fd 0b 8e 07 6a 6d fc f9 d9 97
       -15 48 0 -65 38 2 -3 11 -114 7 106 109 -4 -7 -39 -105
000080 08 9a fe 7f a0 09 00 f5 dd f7 52 08 d1 01 d8 a7
       8 -102 -2 127 -96 9 0 -11 -35 -9 82 8 -47 1 -40 -89

sequential/model/conv_dw_3_bn/FusedBatchNormV3;StatefulPartitionedCall/sequential/model/conv_dw_3_bn/FusedBatchNormV3;sequential/model/conv_dw_3/depthwise;StatefulPartitionedCall/sequential/model/conv_dw_3/depthwise;sequential/model/conv_dw_4/depthwise;StatefulPartitionedCall/sequential/model/conv_dw_4/depthwise i1 [1, 3, 3, 32]
000000 fc f9 fc ed 0b f2 eb 46 d3 ea 04 fc 01 7f f0 d5
       -4 -7 -4 -19 11 -14 -21 70 -45 -22 4 -4 1 127 -16 -43
000010 07 da 00 08 ea f3 e7 02 f5 a0 f9 ee d4 91 f4 08
       7 -38 0 8 -22 -13 -25 2 -11 -96 -7 -18 -44 -111 -12 8
000020 07 f9 00 7f 1b f3 a0 16 0e 43 7f ed fe 87 2a 7f
       7 -7 0 127 27 -13 -96 22 14 67 127 -19 -2 -121 42 127
000030 7f 07 6b f9 dc 06 14 ff 81 c7 e5 23 bd 44 cf 00
       127 7 107 -7 -36 6 20 -1 -127 -57 -27 35 -67 68 -49 0
000040 00 0a ff d1 e2 01 4c 30 b8 0d 6a 16 08 fb f4 fc
       0 10 -1 -47 -30 1 76 48 -72 13 106 22 8 -5 -12 -4
000050 0a 1a 09 f8 11 f5 ff f4 05 0d 02 f5 40 0f 28 02
       10 26 9 -8 17 -11 -1 -12 5 13 2 -11 64 15 40 2
000060 f3 f1 f4 f3 ea d0 bf 27 a4 1e 23 9e 00 2f 19 2b
       -13 -15 -12 -13 -22 -48 -65 39 -92 30 35 -98 0 47 25 43
000070 f6 81 02 7f b2 09 88 f1 1c 7f 7f f5 cb 7f 05 38
       -10 -127 2 127 -78 9 -120 -15 28 127 127 -11 -53 127 5 56
000080 77 81 7f dc 7f 7f 81 3f 81 81 21 7f 8c ea 81 a1
       119 -127 127 -36 127 127 -127 63 -127 -127 33 127 -116 -22 -127 -95
000090 8b 1f 7f 0b 7f 7f 7f 7f 50 3c c3 7f 81 bd 81 7f
       -117 31 127 11 127 127 127 127 80 60 -61 127 -127 -67 -127 127
0000a0 81 16 f4 0b e9 df 23 fb ee ee cf e5 fd f5 1e fa
       -127 22 -12 11 -23 -33 35 -5 -18 -18 -49 -27 -3 -11 30 -6
0000b0 f0 68 fc fa 14 07 07 03 04 07 ee 84 12 f0 0d 18
       -16 104 -4 -6 20 7 7 3 4 7 -18 -124 18 -16 13 24
0000c0 01 01 00 00 fe 1a 50 17 ca f6 ba fd fc f0 04 fb
       1 1 0 0 -2 26 80 23 -54 -10 -70 -3 -4 -16 4 -5
0000d0 03 ed f5 00 ef e8 f4 03 f8 d8 ed f0 44 08 14 01
       3 -19 -11 0 -17 -24 -12 3 -8 -40 -19 -16 68 8 20 1
0000e0 ed fe fc e8 d0 be 11 7f c1 40 0c ff 7f 09 12 ff
       -19 -2 -4 -24 -48 -66 17 127 -63 64 12 -1 127 9 18 -1
0000f0 fb 0a 1b f9 35 f0 00 f6 16 f8 f9 16 21 f5 1f fc
       -5 10 27 -7 53 -16 0 -10 22 -8 -7 22 33 -11 31 -4

sequential/model/conv_dw_4_bn/FusedBatchNormV3;StatefulPartitionedCall/sequential/model/conv_dw_4_bn/FusedBatchNormV3;sequential/model/conv_dw_4/depthwise;StatefulPartitionedCall/sequential/model/conv_dw_4/depthwise i1 [1, 3, 3, 32]
000000 3a 38 fa 28 3a e5 55 46 cd b6 c2 31 d6 d9 25 7c
       58 56 -6 40 58 -27 85 70 -51 -74 -62 49 -42 -39 37 124
000010 c4 4d d6 d2 cd 28 d3 da bb ca 2d bb 42 1b 47 35
       -60 77 -42 -46 -51 40 -45 -38 -69 -54 45 -69 66 27 71 53
000020 58 5e fc 4a a6 54 a1 5f ab 99 a9 56 bc 9f 4a 7f
       88 94 -4 74 -90 84 -95 95 -85 -103 -87 86 -68 -97 74 127
000030 b3 b5 c4 bd ae 5b b4 c8 a2 81 46 a2 a0 39 5e 5a
       -77 -75 -60 -67 -82 91 -76 -56 -94 -127 70 -94 -96 57 94 90
000040 26 34 fa 30 1c d3 14 30 dd d6 e5 31 e1 c7 29 1d
       38 52 -6 48 28 -45 20 48 -35 -42 -27 49 -31 -57 41 29
000050 e5 fe e7 ef db 3d da e9 dd b7 22 d7 1c 25 25 2d
       -27 -2 -25 -17 -37 61 -38 -23 -35 -73 34 -41 28 37 37 45
000060 62 55 d8 4c b4 d1 b9 52 b3 ab a4 4e a9 c6 46 7b
       98 85 -40 76 -76 -47 -71 82 -77 -85 -92 78 -87 -58 70 123
000070 9e 7f ab e1 ad 43 4a a2 a5 32 44 a8 a8 bc 5d 53
       -98 127 -85 -31 -83 67 74 -94 -91 50 68 -88 -88 -68 93 83
000080 7f 7f ba 7f 7f 7f 7f 7f 81 81 81 7f 81 81 7f 52
       127 127 -70 127 127 127 127 127 -127 -127 -127 127 -127 -127 127 82
000090 81 91 81 62 81 7f 7f 81 81 55 7f 81 7f 81 7f 7f
       -127 -111 -127 98 -127 127 127 -127 -127 85 127 -127 127 -127 127 127
0000a0 45 45 e1 54 d3 ae df 42 c5 cb d3 44 c9 b5 41 e2
       69 69 -31 84 -45 -82 -33 66 -59 -53 -45 68 -55 -75 65 -30
0000b0 d0 f8 c7 1f c4 53 30 cd c5 32 3f cc cf c1 2f 36
       -48 -8 -57 31 -60 83 48 -51 -59 50 63 -52 -49 -63 47 54
0000c0 2c 26 51 2c 12 e7 05 1b df ea e2 20 c9 e8 28 14
       44 38 81 44 18 -25 5 27 -33 -22 -30 32 -55 -24 40 20
0000d0 da 37 d3 7f d9 1f f7 c3 dd 01 1f e4 13 16 24 25
       -38 55 -45 127 -39 31 -9 -61 -35 1 31 -28 19 22 36 37
0000e0 4b 3e 7f 4b db 37 f4 38 cd de d1 42 b7 cd 44 de
       75 62 127 75 -37 55 -12 56 -51 -34 -47 66 -73 -51 68 -34
0000f0 c8 c6 bc 1e c4 36 e7 aa cd fc 40 d3 db 33 31 33
       -56 -58 -68 30 -60 54 -25 -86 -51 -4 64 -45 -37 51 49 51

sequential/model/conv_dw_5_bn/FusedBatchNormV3;StatefulPartitionedCall/sequential/model/conv_dw_5_bn/FusedBatchNormV3;sequential/model/conv_dw_5/depthwise;StatefulPartitionedCall/sequential/model/conv_dw_5/depthwise;sequential/model/conv_dw_6/depthwise;StatefulPartitionedCall/sequential/model/conv_dw_6/depthwise i1 [1, 3, 3, 64]
000000 10 03 fd f5 0d 13 17 fc 06 fc 02 36 ec fb fc fd
       16 3 -3 -11 13 19 23 -4 6 -4 2 54 -20 -5 -4 -3
000010 18 01 09 ff 2d 14 05 46 27 cb 10 02 cb 81 eb 00
       24 1 9 -1 45 20 5 70 39 -53 16 2 -53 -127 -21 0
000020 4d ce 04 fe e7 f6 03 03 2a f7 53 00 f3 fc 14 de
       77 -50 4 -2 -25 -10 3 3 42 -9 83 0 -13 -4 20 -34
000030 fd 0e f7 f8 dd 07 0e f3 19 60 ff ec f9 ee 03 39
       -3 14 -9 -8 -35 7 14 -13 25 96 -1 -20 -7 -18 3 57
000040 15 f0 1a 0c e6 2b 7a 02 d1 02 09 c1 be 0d 05 d2
       21 -16 26 12 -26 43 122 2 -47 2 9 -63 -66 13 5 -46
000050 7f 01 03 ed 8d 6a 78 ef 70 ec 81 30 ff 55 bc fe
       127 1 3 -19 -115 106 120 -17 112 -20 -127 48 -1 85 -68 -2
000060 dc 24 1d 43 15 e8 e5 f2 94 20 a1 2a 25 05 76 55
       -36 36 29 67 21 -24 -27 -14 -108 32 -95 42 37 5 118 85
000070 0f 33 87 24 18 ed 08 8d f4 fc 11 3e 04 09 1a be
       15 51 -121 36 24 -19 8 -115 -12 -4 17 62 4 9 26 -66
000080 ed 04 f3 05 04 02 12 fb 0c fd 00 de ff ff fc 0d
       -19 4 -13 5 4 2 18 -5 12 -3 0 -34 -1 -1 -4 13
000090 03 fb 09 fa f2 f9 31 eb 14 0d 28 f5 27 13 f7 02
       3 -5 9 -6 -14 -7 49 -21 20 13 40 -11 39 19 -9 2
0000a0 ca 34 15 f0 07 06 03 08 15 f6 09 fb eb 06 0f e8
       -54 52 21 -16 7 6 3 8 21 -10 9 -5 -21 6 15 -24
0000b0 f7 e5 0c f6 07 02 05 f3 f6 81 fd e1 ff 17 fe 04
       -9 -27 12 -10 7 2 5 -13 -10 -127 -3 -31 -1 23 -2 4
0000c0 20 e4 60 16 7f 39 e6 f6 ef 34 04 d9 c4 0f 00 d9
       32 -28 96 22 127 57 -26 -10 -17 52 4 -39 -60 15 0 -39
0000d0 f9 ff 03 02 8f da f3 02 dd 20 2f 0f 0f 53 18 0a
       -7 -1 3 2 -113 -38 -13 2 -35 32 47 15 15 83 24 10
0000e0 dc 03 f3 54 81 e9 d0 ec a0 43 7f 07 0d 21 e8 fb
       -36 3 -13 84 -127 -23 -48 -20 -96 67 127 7 13 33 -24 -5
0000f0 02 81 7f 30 30 ed f1 11 6d 52 e7 7f 6a 0f 11 b3
       2 -127 127 48 48 -19 -15 17 109 82 -25 127 106 15 17 -77

sequential/model/conv_dw_6_bn/FusedBatchNormV3;StatefulPartitionedCall/sequential/model/conv_dw_6_bn/FusedBatchNormV3;sequential/model/conv_dw_6/depthwise;StatefulPartitionedCall/sequential/model/conv_dw_6/depthwise i1 [1, 3, 3, 64]
000000 36 57 b3 32 5c 4b c9 49 95 b7 5a 3e 47 b5 58 ae
       54 87 -77 50 92 75 -55 73 -107 -73 90 62 71 -75 88 -82
000010 4f 0d 4e ae 3e 48 39 b8 9c 46 6e bf 1e 7f 75 52
       79 13 78 -82 62 72 57 -72 -100 70 110 -65 30 127 117 82
000020 41 41 cb 3b 3f c0 4c bb 4d 6b 43 48 c5 97 b9 59
       65 65 -53 59 63 -64 76 -69 77 107 67 72 -59 -105 -71 89
000030 c6 4f af b0 b2 61 b6 40 c6 47 50 bc 85 ca 44 3d
       -58 79 -81 -80 -78 97 -74 64 -58 71 80 -68 -123 -54 68 61
000040 5e 66 a1 4f 7f 5e ad 5c 9e 58 7f 5d 5d a5 5d 91
       94 102 -95 79 127 94 -83 92 -98 88 127 93 93 -91 93 -111
000050 64 af 61 a1 50 5d 45 a4 90 58 b5 a0 13 0f 7f 63
       100 -81 97 -95 80 93 69 -92 -112 88 -75 -96 19 15 127 99
000060 60 52 a4 4a 5a a7 5f a2 5d 75 61 5a a1 8c 9f aa
       96 82 -92 74 90 -89 95 -94 93 117 97 90 -95 -116 -97 -86
000070 ac 64 a0 9b 90 a6 9d 58 b8 5a 64 a5 81 af 5d 67
       -84 100 -96 -101 -112 -90 -99 88 -72 90 100 -91 -127 -81 93 103
000080 28 32 da 24 37 2d d9 26 d5 0f 36 1d 24 e0 24 c6
       40 50 -38 36 55 45 -39 38 -43 15 54 29 36 -32 36 -58
000090 32 48 1f d4 29 24 1d e4 dd 20 ce e2 2a f6 13 25
       50 72 31 -44 41 36 29 -28 -35 32 -50 -30 42 -10 19 37
0000a0 2c 20 d0 18 27 d8 29 dd 1f 34 2f 20 c7 d5 db f3
       44 32 -48 24 39 -40 41 -35 31 52 47 32 -57 -43 -37 -13
0000b0 df 20 e0 d4 c9 f3 cb 24 dc 23 2a dd d0 dd 2f 2b
       -33 32 -32 -44 -55 -13 -53 36 -36 35 42 -35 -48 -35 47 43
0000c0 44 68 99 5a 94 61 b0 69 81 81 c3 58 61 96 75 9d
       68 104 -103 90 -108 97 -80 105 -127 -127 -61 88 97 -106 117 -99
0000d0 65 1a 67 94 63 62 6c 9e 8a 65 7f b1 f4 6f 2e 6e
       101 26 103 -108 99 98 108 -98 -118 101 127 -79 -12 111 46 110
0000e0 5e 67 b5 62 5c a2 5f a9 64 74 5b 64 b1 8e a3 7f
       94 103 -75 98 92 -94 95 -87 100 116 91 100 -79 -114 -93 127
0000f0 ab 5d a4 9c a3 7f a1 5a a9 5d 65 a5 36 a5 5a 4b
       -85 93 -92 -100 -93 127 -95 90 -87 93 101 -91 54 -91 90 75

sequential/model/conv_dw_7_bn/FusedBatchNormV3;StatefulPartitionedCall/sequential/model/conv_dw_7_bn/FusedBatchNormV3;sequential/model/conv_dw_7/depthwise;StatefulPartitionedCall/sequential/model/conv_dw_7/depthwise;sequential/model/conv_dw_12/depthwise;StatefulPartitionedCall/sequential/model/conv_dw_12/depthwise i1 [1, 3, 3, 128]
000000 16 08 f5 fb 05 01 05 fe fd fd fe 02 f9 fe 01 ff
       22 8 -11 -5 5 1 5 -2 -3 -3 -2 2 -7 -2 1 -1
000010 04 ff 04 fb cf fe fd ff f9 02 ff 06 fd 03 01 fe
       4 -1 4 -5 -49 -2 -3 -1 -7 2 -1 6 -3 3 1 -2
000020 f9 04 fc fd 09 01 0b 04 eb f8 00 fe 15 81 f9 09
       -7 4 -4 -3 9 1 11 4 -21 -8 0 -2 21 -127 -7 9
000030 f9 f5 05 03 fb f2 0f f8 0d 0a 01 fd f4 0f 02 ea
       -7 -11 5 3 -5 -14 15 -8 13 10 1 -3 -12 15 2 -22
000040 05 00 10 f9 05 fe 09 ff 06 0c 01 00 ea 09 03 f6
       5 0 16 -7 5 -2 9 -1 6 12 1 0 -22 9 3 -10
000050 06 f6 fa 00 16 fc 02 0b 03 fb 01 04 07 04 07 05
       6 -10 -6 0 22 -4 2 11 3 -5 1 4 7 4 7 5
000060 00 10 08 05 08 01 32 09 fb f9 02 f6 00 16 ef f9
       0 16 8 5 8 1 50 9 -5 -7 2 -10 0 22 -17 -7
000070 fd ff ff 1b 13 02 14 fd fb ff 15 fe e4 ff 0c 02
       -3 -1 -1 27 19 2 20 -3 -5 -1 21 -2 -28 -1 12 2
000080 7f 1a 00 07 01 86 f1 09 0d f4 fa f5 fc 09 11 bc
       127 26 0 7 1 -122 -15 9 13 -12 -6 -11 -4 9 17 -68
000090 f1 fd da eb 8e c6 c1 e7 07 fb e1 7f f8 ee f8 f6
       -15 -3 -38 -21 -114 -58 -63 -25 7 -5 -31 127 -8 -18 -8 -10
0000a0 98 7f f4 fe 05 0a f0 db 18 81 e7 f8 7f 6e c2 fb
       -104 127 -12 -2 5 10 -16 -37 24 -127 -25 -8 127 110 -62 -5
0000b0 ec 06 f3 ec 05 ea 7f ca f1 7f f0 0a ea 7f 05 19
       -20 6 -13 -20 5 -22 127 -54 -15 127 -16 10 -22 127 5 25
0000c0 28 0e e9 fe ff 02 f2 7f ea ea ed 16 17 0b f2 fa
       40 14 -23 -2 -1 2 -14 127 -22 -22 -19 22 23 11 -14 -6
0000d0 26 e9 ed 0a ec 1d ec f2 13 f9 ea f5 f9 f5 f0 19
       38 -23 -19 10 -20 29 -20 -14 19 -7 -22 -11 -7 -11 -16 25
0000e0 ec 81 03 ee fe f3 e0 7f bf cc 7f 0a a7 f6 28 ed
       -20 -127 3 -18 -2 -13 -32 127 -65 -52 127 10 -89 -10 40 -19
0000f0 0f 25 ee 7f f5 0f 54 ee ca 15 b5 e2 bd f5 e8 0d
       15 37 -18 127 -11 15 84 -18 -54 21 -75 -30 -67 -11 -24 13

sequential/model/conv_dw_8_bn/FusedBatchNormV3;StatefulPartitionedCall/sequential/model/conv_dw_8_bn/FusedBatchNormV3;sequential/model/conv_dw_8/depthwise;StatefulPartitionedCall/sequential/model/conv_dw_8/depthwise;sequential/model/conv_dw_12/depthwise;StatefulPartitionedCall/sequential/model/conv_dw_12/depthwise i1 [1, 3, 3, 128]
000000 04 01 04 0e 22 1c f4 0c 04 37 f6 21 fa ff dd 04
       4 1 4 14 34 28 -12 12 4 55 -10 33 -6 -1 -35 4
000010 05 f9 fe ef 01 f1 02 03 06 0c ff 06 09 f7 22 0b
       5 -7 -2 -17 1 -15 2 3 6 12 -1 6 9 -9 34 11
000020 f8 04 fd 00 ec 01 02 f1 02 0e ff 01 23 fc 05 15
       -8 4 -3 0 -20 1 2 -15 2 14 -1 1 35 -4 5 21
000030 d9 c8 10 f9 14 26 03 00 0d fd 03 01 01 06 0b a2
       -39 -56 16 -7 20 38 3 0 13 -3 3 1 1 6 11 -94
000040 e1 1c cd 0c 25 04 17 ec 0a fe dc db 07 fc 02 05
       -31 28 -51 12 37 4 23 -20 10 -2 -36 -37 7 -4 2 5
000050 06 07 14 04 fc f7 11 05 f7 05 0e 1f 03 13 3d ee
       6 7 20 4 -4 -9 17 5 -9 5 14 31 3 19 61 -18
000060 05 07 2b f9 e1 0a 47 0a 05 09 06 09 02 fb fa ce
       5 7 43 -7 -31 10 71 10 5 9 6 9 2 -5 -6 -50
000070 0f 07 d9 fd 07 fb 01 fe 05 12 08 1a f3 fe 06 07
       15 7 -39 -3 7 -5 1 -2 5 18 8 26 -13 -2 6 7
000080 04 f5 09 fa 0f 7f ec e7 08 2a 92 fa f5 fd ed 0d
       4 -11 9 -6 15 127 -20 -25 8 42 -110 -6 -11 -3 -19 13
000090 09 f1 07 03 f7 07 16 00 fa ec 04 02 35 e0 f0 17
       9 -15 7 3 -9 7 22 0 -6 -20 4 2 53 -32 -16 23
0000a0 8b ff 1b 0a ec f4 fe 00 cc eb f2 f5 03 ed fa 7f
       -117 -1 27 10 -20 -12 -2 0 -52 -21 -14 -11 3 -19 -6 127
0000b0 ba 81 1d fa d0 7f f0 04 d6 fd d2 09 07 ff b6 93
       -70 -127 29 -6 -48 127 -16 4 -42 -3 -46 9 7 -1 -74 -109
0000c0 d3 7f a0 25 dd 04 0e d5 22 f1 ab e1 f2 bc a0 1a
       -45 127 -96 37 -35 4 14 -43 34 -15 -85 -31 -14 -68 -96 26
0000d0 a7 ff 1a f5 ed 6e 14 05 d6 12 18 7f f8 fb 39 ee
       -89 -1 26 -11 -19 110 20 5 -42 18 24 127 -8 -5 57 -18
0000e0 ea 1c 00 27 67 04 7f 7f 00 0a 15 7f 9a fc f6 bb
       -22 28 0 39 103 4 127 127 0 10 21 127 -102 -4 -10 -69
0000f0 17 17 e1 a3 01 e4 08 ee f2 04 02 5f 04 28 e9 01
       23 23 -31 -93 1 -28 8 -18 -14 4 2 95 4 40 -23 1

sequential/model/conv_dw_9_bn/FusedBatchNormV3;StatefulPartitionedCall/sequential/model/conv_dw_9_bn/FusedBatchNormV3;sequential/model/conv_dw_9/depthwise;StatefulPartitionedCall/sequential/model/conv_dw_9/depthwise;sequential/model/conv_dw_12/depthwise;StatefulPartitionedCall/sequential/model/conv_dw_12/depthwise i1 [1, 3, 3, 128]
000000 fb 13 81 03 f7 fe 01 06 e2 0a f1 02 e8 01 f8 ee
       -5 19 -127 3 -9 -2 1 6 -30 10 -15 2 -24 1 -8 -18
000010 15 fc cf 08 01 20 01 f6 05 e7 04 dc 09 fc ff d6
       21 -4 -49 8 1 32 1 -10 5 -25 4 -36 9 -4 -1 -42
000020 fa 2a f6 03 3b fa 02 d8 02 0b e8 2a 8c fc b3 f5
       -6 42 -10 3 59 -6 2 -40 2 11 -24 42 -116 -4 -77 -11
000030 f4 fd f8 f8 e6 22 ec 03 01 05 fa 09 fc 09 f1 0c
       -12 -3 -8 -8 -26 34 -20 3 1 5 -6 9 -4 9 -15 12
000040 fc 17 fd fd 07 00 00 fb 46 fe 0c fe 96 b8 04 ed
       -4 23 -3 -3 7 0 0 -5 70 -2 12 -2 -106 -72 4 -19
000050 db dd 19 06 06 d3 f6 e2 f7 fd d5 fc 13 15 b4 db
       -37 -35 25 6 6 -45 -10 -30 -9 -3 -43 -4 19 21 -76 -37
000060 05 fd 0f 07 00 06 02 fc 04 02 29 e1 17 14 04 f8
       5 -3 15 7 0 6 2 -4 4 2 41 -31 23 20 4 -8
000070 18 16 4b 07 ff 0a 2e f4 1b f8 f7 fd 1a 01 02 05
       24 22 75 7 -1 10 46 -12 27 -8 -9 -3 26 1 2 5
000080 fd e6 18 ed 04 fe f6 ff cb 01 f3 ef c9 e6 fe 32
       -3 -26 24 -19 4 -2 -10 -1 -53 1 -13 -17 -55 -26 -2 50
000090 7f e9 f3 fe 23 13 04 be 0c 81 cd fa 04 7f f7 0f
       127 -23 -13 -2 35 19 4 -66 12 -127 -51 -6 4 127 -9 15
0000a0 f2 57 fc 05 7f 07 f9 81 22 f6 1f f7 81 50 8b ec
       -14 87 -4 5 127 7 -7 -127 34 -10 31 -9 -127 80 -117 -20
0000b0 45 08 00 fd 84 52 02 f7 ed 07 e1 11 0c f4 dd 7f
       69 8 0 -3 -124 82 2 -9 -19 7 -31 17 12 -12 -35 127
0000c0 ed 38 f2 df f4 12 f4 ec 3d f6 fd fb 02 43 00 de
       -19 56 -14 -33 -12 18 -12 -20 61 -10 -3 -5 2 67 0 -34
0000d0 b9 b0 7f 0b de 96 f1 c9 dc e6 90 20 01 1e 81 61
       -71 -80 127 11 -34 -106 -15 -55 -36 -26 -112 32 1 30 -127 97
0000e0 fb fe 16 7f 09 16 f7 e6 ed f2 0f c0 f0 19 0d f0
       -5 -2 22 127 9 22 -9 -26 -19 -14 15 -64 -16 25 13 -16
0000f0 38 76 18 22 ef 18 74 fd 35 1e d4 e8 32 f3 fb eb
       56 118 24 34 -17 24 116 -3 53 30 -44 -24 50 -13 -5 -21

sequential/model/conv_dw_10_bn/FusedBatchNormV3;StatefulPartitionedCall/sequential/model/conv_dw_10_bn/FusedBatchNormV3;sequential/model/conv_dw_10/depthwise;StatefulPartitionedCall/sequential/model/conv_dw_10/depthwise;sequential/model/conv_dw_12/depthwise;StatefulPartitionedCall/sequential/model/conv_dw_12/depthwise i1 [1, 3, 3, 128]
000000 fb 33 f6 3c ff 00 fb 11 f3 00 f8 f4 02 56 05 01
       -5 51 -10 60 -1 0 -5 17 -13 0 -8 -12 2 86 5 1
000010 0a ee 14 fe f9 fc e6 00 04 11 fd f8 f0 02 9b 24
       10 -18 20 -2 -7 -4 -26 0 4 17 -3 -8 -16 2 -101 36
000020 fe 7f f9 0f ee 05 f7 e1 06 fc 66 1e 06 3c 06 fb
       -2 127 -7 15 -18 5 -9 -31 6 -4 102 30 6 60 6 -5
000030 00 05 03 c7 e7 00 ff 17 f9 07 7f 06 f7 03 fb fc
       0 5 3 -57 -25 0 -1 23 -7 7 127 6 -9 3 -5 -4
000040 fe 14 f7 0a fb cf 26 17 ff 09 df 02 14 ec ff cf
       -2 20 -9 10 -5 -49 38 23 -1 9 -33 2 20 -20 -1 -49
000050 05 00 79 e8 06 f8 05 fd fb 44 f8 f6 02 fb b6 11
       5 0 121 -24 6 -8 5 -3 -5 68 -8 -10 2 -5 -74 17
000060 ef 11 fb 17 fc f8 cc 5b 0d 07 fe e9 01 33 fc 03
       -17 17 -5 23 -4 -8 -52 91 13 7 -2 -23 1 51 -4 3
000070 ff 10 1c 03 ff 07 f1 e1 f0 ff f6 f8 f8 f9 04 11
       -1 16 28 3 -1 7 -15 -31 -16 -1 -10 -8 -8 -7 4 17
000080 ff 7f db 9d fb fd f7 30 40 e1 d5 fc fe 15 23 f7
       -1 127 -37 -99 -5 -3 -9 48 64 -31 -43 -4 -2 21 35 -9
000090 20 b1 ef 7f fc f7 81 d5 58 ff fa 02 fb 11 18 7f
       32 -79 -17 127 -4 -9 -127 -43 88 -1 -6 2 -5 17 24 127
0000a0 db 79 81 23 ff f5 1a 03 fc f9 7f 7f 2d 7f f8 0e
       -37 121 -127 35 -1 -11 26 3 -4 -7 127 127 45 127 -8 14
0000b0 dc f2 03 a3 18 f9 83 50 04 d5 15 7f 0e 13 02 00
       -36 -14 3 -93 24 -7 -125 80 4 -43 21 127 14 19 2 0
0000c0 0a fc e4 c7 ee 81 7f ef 01 ef de 0f c9 81 f8 a5
       10 -4 -28 -57 -18 -127 127 -17 1 -17 -34 15 -55 -127 -8 -91
0000d0 58 d0 46 bf f0 e7 e3 f2 07 7f d8 f8 f0 ad 87 7f
       88 -48 70 -65 -16 -25 -29 -14 7 127 -40 -8 -16 -83 -121 127
0000e0 f1 ff 97 e0 16 ec 9a f5 21 7f 07 fd 20 7f 1f 16
       -15 -1 -105 -32 22 -20 -102 -11 33 127 7 -3 32 127 31 22
0000f0 08 1c 06 08 82 16 be a9 18 29 cf f2 b4 ed f1 2f
       8 28 6 8 -126 22 -66 -87 24 41 -49 -14 -76 -19 -15 47

sequential/model/conv_dw_11_bn/FusedBatchNormV3;StatefulPartitionedCall/sequential/model/conv_dw_11_bn/FusedBatchNormV3;sequential/model/conv_dw_11/depthwise;StatefulPartitionedCall/sequential/model/conv_dw_11/depthwise;sequential/model/conv_dw_12/depthwise;StatefulPartitionedCall/sequential/model/conv_dw_12/depthwise i1 [1, 3, 3, 128]
000000 df 30 22 08 fe 02 d0 25 bd 0b fd ef 02 8f 42 01
       -33 48 34 8 -2 2 -48 37 -67 11 -3 -17 2 -113 66 1
000010 9a c2 00 02 03 f4 2a e3 15 38 f2 16 9b da 05 fe
       -102 -62 0 2 3 -12 42 -29 21 56 -14 22 -101 -38 5 -2
000020 13 39 1b fa 10 0a 01 83 c4 24 f8 aa 1e 2f 1a 8b
       19 57 27 -6 16 10 1 -125 -60 36 -8 -86 30 47 26 -117
000030 04 06 d9 15 0d f5 0c 01 df f5 0d d5 29 e1 03 e2
       4 6 -39 21 13 -11 12 1 -33 -11 13 -43 41 -31 3 -30
000040 08 f3 0c 04 11 0b bf c0 e4 d5 04 3c 0c fb f1 f7
       8 -13 12 4 17 11 -65 -64 -28 -43 4 60 12 -5 -15 -9
000050 e2 03 02 8b 46 12 30 ea 19 ed ff 50 f4 1a 25 fc
       -30 3 2 -117 70 18 48 -22 25 -19 -1 80 -12 26 37 -4
000060 10 c3 69 a4 f4 07 2a 0d f9 12 06 cd 05 90 31 11
       16 -61 105 -92 -12 7 42 13 -7 18 6 -51 5 -112 49 17
000070 f3 dc 0b e5 f0 fb c8 24 43 24 d1 40 12 e6 fc f5
       -13 -36 11 -27 -16 -5 -56 36 67 36 -47 64 18 -26 -4 -11
000080 a9 05 64 37 f5 e4 81 41 9a 3e 17 e3 e2 e5 65 14
       -87 5 100 55 -11 -28 -127 65 -102 62 23 -29 -30 -27 101 20
000090 e7 81 07 0d 03 fc 4f b0 39 75 bd 00 8b 81 28 f6
       -25 -127 7 13 3 -4 79 -80 57 117 -67 0 -117 -127 40 -10
0000a0 3b 42 12 fd 16 36 0d 9a 30 7f e5 a1 67 7f 7f f6
       59 66 18 -3 22 54 13 -102 48 127 -27 -95 103 127 127 -10
0000b0 30 18 ad 3a 21 b7 43 ee 84 e0 26 81 35 fb 81 a8
       48 24 -83 58 33 -73 67 -18 -124 -32 38 -127 53 -5 -127 -88
0000c0 7f df 5a e9 35 08 97 81 c6 98 19 75 fb 12 db f9
       127 -33 90 -23 53 8 -105 -127 -58 -104 25 117 -5 18 -37 -7
0000d0 78 f5 25 81 26 3f 7f bf 42 7f 5c ed d7 22 53 f4
       120 -11 37 -127 38 63 127 -65 66 127 92 -19 -41 34 83 -12
0000e0 21 90 3b 9c 0d 31 c0 4c 03 47 01 a5 fb 81 7f d2
       33 -112 59 -100 13 49 -64 76 3 71 1 -91 -5 -127 127 -46
0000f0 f5 bd 20 ab 3c 0e b9 30 7a f3 c4 f0 46 a2 db 35
       -11 -67 32 -85 60 14 -71 48 122 -13 -60 -16 70 -94 -37 53

sequential/model/conv_dw_12_bn/FusedBatchNormV3;StatefulPartitionedCall/sequential/model/conv_dw_12_bn/FusedBatchNormV3;sequential/model/conv_dw_12/depthwise;StatefulPartitionedCall/sequential/model/conv_dw_12/depthwise i1 [1, 3, 3, 128]
000000 3f 4d 45 51 bb 47 c4 6b 47 57 c0 45 44 b9 b7 3d
       63 77 69 81 -69 71 -60 107 71 87 -64 69 68 -71 -73 61
000010 bd 48 3b 46 4c be bf b8 44 c2 41 53 b9 9a a6 46
       -67 72 59 70 76 -66 -65 -72 68 -62 65 83 -71 -102 -90 70
000020 43 48 45 bf b7 70 51 54 bc b1 bf 81 4a c6 45 c2
       67 72 69 -65 -73 112 81 84 -68 -79 -65 -127 74 -58 69 -62
000030 bc c5 39 bd 48 42 be 44 5d bf 5e bc 4a 46 46 44
       -68 -59 57 -67 72 66 -66 68 93 -65 94 -68 74 70 70 68
000040 c2 bd 3f 47 4a 45 42 4d a4 40 47 46 41 65 bf 43
       -62 -67 63 71 74 69 66 77 -92 64 71 70 65 101 -65 67
000050 b6 b6 b3 48 c0 c6 41 46 3e 46 46 3f 40 bd 48 99
       -74 -74 -77 72 -64 -58 65 70 62 70 70 63 64 -67 72 -103
000060 c3 c5 bc 46 4c 60 4e 48 98 50 41 3c 20 37 be c0
       -61 -59 -68 70 76 96 78 72 -104 80 65 60 32 55 -66 -64
000070 b3 93 b7 3f 44 ac 44 48 4b 40 3a 27 81 c0 bc 43
       -77 -109 -73 63 68 -84 68 72 75 64 58 39 -127 -64 -68 67
000080 56 62 58 69 a4 5c ae 7f 59 69 ac 59 5a a4 a5 4e
       86 98 88 105 -92 92 -82 127 89 105 -84 89 90 -92 -91 78
000090 a8 5d 53 64 63 a7 a7 a1 58 ac 58 6c a2 81 9e 5b
       -88 93 83 100 99 -89 -89 -95 88 -84 88 108 -94 -127 -98 91
0000a0 56 5e 5d aa a2 7f 6a 64 ad 9a a9 ad 65 ac 5b af
       86 94 93 -86 -94 127 106 100 -83 -102 -87 -83 101 -84 91 -81
0000b0 a5 b1 4e a6 57 58 ab 58 78 a7 76 a2 5d 59 5b 59
       -91 -79 78 -90 87 88 -85 88 120 -89 118 -94 93 89 91 89
0000c0 b4 a9 52 5b 5e 62 53 5e 81 4f 5b 59 52 78 a8 58
       -76 -87 82 91 94 98 83 94 -127 79 91 89 82 120 -88 88
0000d0 a6 9c 9f 61 a8 ad 54 5a 51 59 59 4d 55 ac 5d 81
       -90 -100 -97 97 -88 -83 84 90 81 89 89 77 85 -84 93 -127
0000e0 ad b0 a3 57 62 7a 60 58 81 66 53 4f 21 46 b6 a8
       -83 -80 -93 87 98 122 96 88 -127 102 83 79 33 70 -74 -88
0000f0 9f 8c a4 51 57 9d 57 60 63 56 50 2d b7 ad aa 5c
       -97 -116 -92 81 87 -99 87 96 99 86 80 45 -73 -83 -86 92

sequential/model/conv_dw_13_bn/FusedBatchNormV3;StatefulPartitionedCall/sequential/model/conv_dw_13_bn/FusedBatchNormV3;sequential/model/conv_dw_13/depthwise;StatefulPartitionedCall/sequential/model/conv_dw_13/depthwise;sequential/model/conv_pw_13/Conv2D;StatefulPartitionedCall/sequential/model/conv_pw_13/Conv2D i1 [1, 3, 3, 256]
000000 81 01 81 ce 33 95 86 d7 38 16 1d 0c 5e 1b a6 4e
       -127 1 -127 -50 51 -107 -122 -41 56 22 29 12 94 27 -90 78
000010 1a 8b 3f 7f dd d1 a6 a4 d1 a0 a9 be 81 81 81 f7
       26 -117 63 127 -35 -47 -90 -92 -47 -96 -87 -66 -127 -127 -127 -9
000020 85 39 8f 8d 13 be 4e 49 3d 92 99 b3 75 bf 2c 5d
       -123 57 -113 -115 19 -66 78 73 61 -110 -103 -77 117 -65 44 93
000030 52 b2 7f 01 dd e4 c2 aa 8c d0 bb 5a a8 b2 d4 15
       82 -78 127 1 -35 -28 -62 -86 -116 -48 -69 90 -88 -78 -44 21
000040 ac eb 9c 7f 99 a6 70 f0 99 28 6f 76 ca 35 25 d7
       -84 -21 -100 127 -103 -90 112 -16 -103 40 111 118 -54 53 37 -41
000050 e9 2e de 60 e1 81 35 df af ee cb 72 52 d9 cc 60
       -23 46 -34 96 -31 -127 53 -33 -81 -18 -53 114 82 -39 -52 96
000060 2c 43 10 d6 27 81 84 08 3b bf 9e a6 69 58 5b 7f
       44 67 16 -42 39 -127 -124 8 59 -65 -98 -90 105 88 91 127
000070 d0 8b 81 85 72 7f a9 7d 81 e6 81 7f 9f 52 ce 29
       -48 -117 -127 -123 114 127 -87 125 -127 -26 -127 127 -97 82 -50 41
000080 22 44 ad 55 af 55 7f 04 c3 84 17 53 06 e6 b1 b7
       34 68 -83 85 -81 85 127 4 -61 -124 23 83 6 -26 -79 -73
000090 7f 47 d9 9e 9e 53 61 f9 25 64 81 c3 c3 e3 05 59
       127 71 -39 -98 -98 83 97 -7 37 100 -127 -61 -61 -29 5 89
0000a0 b1 b6 7d 7d 1b c1 5b 32 a6 cc d4 32 81 2f 59 a6
       -79 -74 125 125 27 -63 91 50 -90 -52 -44 50 -127 47 89 -90
0000b0 05 f0 c0 ca d6 81 00 89 41 c2 fe 00 e4 ff e3 7f
       5 -16 -64 -54 -42 -127 0 -119 65 -62 -2 0 -28 -1 -29 127
0000c0 71 20 7f 9c 2e ee 81 4c 14 a3 70 dd e0 8f 6a 65
       113 32 127 -100 46 -18 -127 76 20 -93 112 -35 -32 -113 106 101
0000d0 82 52 3a ba db 21 c0 0f 69 3c aa ae a5 0a 1b bd
       -126 82 58 -70 -37 33 -64 15 105 60 -86 -82 -91 10 27 -67
0000e0 ca 10 81 b9 27 58 7f 6b b4 ee 56 49 0b a6 42 74
       -54 16 -127 -71 39 88 127 107 -76 -18 86 73 11 -90 66 116
0000f0 1d 4d e5 2d fe 73 99 61 e0 5e 7f 1f 60 ee d6 54
       29 77 -27 45 -2 115 -103 97 -32 94 127 31 96 -18 -42 84
